Reinforcement Learning/cart-pole/policy_net.pth (torch, 7718 bytes, 6 tensors)

fc1.weight f4 [32, 4]
1.1889936 0.11739142 -0.64705133 0.31060356 0.093986824 0.10263798 0.017133828 0.2351057
-0.28570327 -0.31753734 -0.48553023 0.13861535 -0.33352256 -0.1418074 -0.24130833 -0.14092569
0.06328606 0.25111708 0.4552281 0.17769727 0.12721483 0.13024583 -0.34027615 -0.19860575
0.63788235 0.5511947 0.10554485 0.023581982 0.45046362 0.4480191 1.1513839 0.1755731
-1.0680536 -0.8151038 -0.95088136 0.43669128 0.49109784 0.57418966 1.3059956 0.39849636
0.18777274 -0.35528478 -0.67312825 0.013805101 -0.34121376 0.101609856 -0.09445542 0.29273638
0.14892863 -0.06310095 -0.52470785 -0.14586914 -0.51065624 -0.36956802 -0.5790742 -0.065927334
-0.393723 -0.05799728 -0.29237577 0.005007383 -0.4976637 0.068514846 0.14941107 0.8971975
-0.44998935 -0.19211249 0.3759849 -0.12171842 -0.36447102 0.039053544 0.5760273 -0.38923147
-0.6218358 -0.36377934 0.96240264 0.09645564 -0.019384377 -0.13666707 0.2772592 -0.062357318
0.54643285 -0.22656322 -0.692157 -0.16007534 -1.0186521 0.08142471 0.38304898 0.017693156
-0.49655822 -0.23631744 -0.32949796 0.08564109 -0.37179205 0.23286496 -0.4433007 0.12584813
0.16993539 -0.3777264 0.42460087 -0.08297204 -0.10433753 0.4345528 -0.0035485616 0.21548328
0.39859334 -0.35514304 0.3987934 0.037485648 -0.2072174 -0.28568366 -0.85508263 -0.0683649
0.26347825 -0.12164503 0.23957038 -0.21473174 0.60643506 -0.5093274 -0.29746374 -0.832336
-1.5467582 -0.5387051 0.5140322 0.35364935 -0.27495068 -0.004539808 -0.027874248 -0.00094651745
00000000: f130 983f ea6a f03d 28a5 25bf 6e07 9f3e
00000010: 2a7c c03d dc33 d23d 3e5c 8c3c 8cbf 703e
00000020: b347 92be 4194 a2be 6b97 f8be 2ff1 0d3e
00000030: 78c3 aabe f635 11be 8819 77be d34e 10be
00000040: 1f9c 813d 6b92 803e a813 e93e 46f6 353e
00000050: 9b44 023e 2a5f 053e ad38 aebe 4e5f 4bbe
00000060: 424c 233f 191b 0d3f e627 d83d 002f c13c
00000070: 2ba3 e63e c262 e53e 8c60 933f 6fc9 333e
00000080: fbb5 88bf a5aa 50bf f66c 73bf 0096 df3e
00000090: 2d71 fb3e 18fe 123f dd2a a73f b707 cc3e
000000a0: 7f47 403e e3e7 b5be 2252 2cbf ca2e 623c
000000b0: 92b3 aebe d418 d03d d871 c1bd 8be1 953e
000000c0: bf80 183e 123b 81bd 4153 06bf b85e 15be
000000d0: 5eba 02bf 0538 bdbe 353e 14bf e904 87bd
000000e0: 1096 c9be 8e8e 6dbd 47b2 95be f914 a43b
000000f0: c7cd febe 8351 8c3d 37ff 183e bcae 653f
00000100: 0165 e6be 23b9 44be 1881 c03e 8247 f9bd
00000110: f29b babe 9cf6 1f3d 8676 133f 5949 c7be
00000120: a230 1fbf 4941 babe 0560 763f 898a c53d
00000130: fccb 9ebc 74f2 0bbe ebf4 8d3e 636a 7fbd
00000140: 06e3 0b3f 3000 68be 3331 31bf caea 23be
00000150: 3163 82bf 00c2 a63d ff1e c43e 3df1 903c
00000160: e13c febe 33fd 71be f5b3 a8be 9964 af3d
00000170: 875b bebe 2774 6e3e 4ff8 e2be 55de 003e
00000180: 8b03 2e3e 5b65 c1be 4965 d93e 3fed a9bd
00000190: eaae d5bd b47d de3e fc8e 68bb a6a7 5c3e
000001a0: 6d14 cc3e 4fd5 b5be a62e cc3e 8d8a 193d
000001b0: cc30 54be 2145 92be b2e6 5abf e602 8cbd
000001c0: 9fe6 863e 0821 f9bd f051 753e a3e2 5bbe
000001d0: 543f 1b3f 4863 02bf 2b4d 98be f913 55bf
000001e0: 2cfc c5bf 94e8 09bf 9d97 033f 8711 b53e
000001f0: 56c6 8cbe abc2 94bb 8958 e4bc b61f 78ba

fc1.bias f4 [32]
0.015094483 -0.20647533 0.5806006 0.55759543 0.52622485 0.026635759 -0.31843743 -0.29981354
0.19391906 0.19964364 0.42610854 0.33806524 -0.7270097 -0.4105379 0.5546493 0.011506135
0.6709715 0.5091277 -0.6018058 0.3970549 0.5678698 -0.31371614 0.35276413 0.5998353
0.45374465 0.68293846 -0.42339247 -0.42230454 0.6049848 -0.11353252 -0.30539933 0.5625591
00000000: da4e 773c 456e 53be 3ea2 143f 93be 0e3f
00000010: acb6 063f 3c33 da3c 3b0a a3be 2981 99be
00000020: b892 463e 626f 4c3e e62a da3e e316 ad3e
00000030: 4f1d 3abf 0632 d2be 7ffd 0d3f 3a84 3c3c
00000040: cac4 2b3f 3156 023f f20f 1abf c84a cb3e
00000050: ea5f 113f 679f a0be 809d b43e ce8e 193f
00000060: 3851 e83e 0ed5 2e3f e6c6 d8be 4d38 d8be
00000070: 49e0 1a3f bd83 e8bd 4d5d 9cbe e003 103f

fc2.weight f4 [32, 32]
-0.35407302 -0.14789395 0.26412767 0.0997362 -0.30956197 0.18120462 0.0697281 -0.29383546
0.2991716 -0.281908 0.17131266 0.076398216 0.19174254 0.57230604 0.20462002 -0.069110624
0.10673766 -0.08682593 0.004717096 -0.12092402 0.09711193 0.387118 0.20038016 0.22864234
-0.31572387 -0.042860046 0.03787405 0.7793629 0.015858166 -0.15829575 0.060112674 0.060119193
-0.15855992 0.08241054 -0.30299306 -0.58782405 0.10396227 0.12838627 0.3103898 0.2548921
-0.1726443 0.1716842 -0.2238563 0.022767162 0.14692372 -0.21571082 -0.39241213 0.07864982
0.10037411 0.104283616 0.28826952 0.15151069 -0.48082426 0.80206835 -0.084934145 -0.15415476
-0.09362031 -0.0949728 0.6845538 -0.16915253 -0.27825183 -0.11027954 -0.05127111 -0.17211847
-0.14945613 0.05110489 0.112508096 0.15232065 -0.05452159 -0.14683765 -0.3816227 -0.038473994
-0.16251019 -0.13961345 0.08371658 -0.13627444 -0.2972078 -0.26700163 0.09873509 0.111968465
0.022585804 -0.076387666 -0.02623579 0.12554419 0.06264468 -0.0742199 0.022735482 0.16619202
-0.08187602 -0.09929365 0.013802259 -0.10967631 0.019936606 -0.12859254 0.017575473 0.2402759
0.05802425 0.00954392 0.26645288 0.1832289 0.12333196 -0.01223882 -0.40255037 -0.18651015
0.005044572 -0.10381693 0.11479358 0.18167365 -0.25102243 -0.30195618 0.13172868 0.0652765
0.3410336 0.22129057 -0.109147124 0.2910076 0.38503206 -0.26972604 0.062894344 0.20968863
0.24476765 0.2881776 -0.23014238 -0.23404898 0.03519493 -0.0067530577 -0.19398214 0.16936825
0.12076764 -0.20899059 0.041503496 0.16861236 0.14006025 -0.040766392 -0.1697775 -0.111075796
0.090870254 -0.11807181 0.031037364 0.21362546 -0.16042055 -0.35641554 0.1366901 0.016261695
0.34567243 0.22537106 -0.04940993 0.40277353 0.19931352 -0.47002003 -0.0364145 0.13334061
0.2779863 0.054989073 -0.18451758 -0.52538055 0.23735505 -0.1242143 -0.051897872 0.42806223
-0.14462611 -0.20828436 0.07585577 0.4252257 0.1282791 0.052941713 -0.15239002 -0.2620304
0.010490215 -0.07306703 0.2571045 0.22188006 -0.38481778 -0.4208925 0.3834848 0.053366594
0.28637448 0.09917698 0.0080041755 0.18428913 0.4087285 -0.5185784 -0.01940807 0.3018951
0.31408 0.24756917 -0.34690294 -0.5574364 0.30146435 0.17584872 0.14980744 0.40133524
0.032244053 0.064174615 0.024723465 0.17081274 0.1298664 -0.21463022 -0.20418711 -0.10605733
-0.083526455 -0.15765908 0.14182368 0.03276132 -0.42216238 -0.48536953 0.342501 0.05641562
0.12718125 -0.019455131 -0.35525137 0.114809625 0.23779525 -0.50698525 0.027876098 0.31624857
0.37379542 0.19070068 -0.47733903 -0.424633 0.1983633 -0.07979195 0.078319 0.3601735
0.10711399 0.060573515 -0.08365224 -0.4442988 -0.028428392 0.10302552 0.10684082 0.5271857
-0.24914744 0.26196638 -0.38152206 0.028760219 0.008996082 -0.3259919 -0.20708063 -0.03655107
-0.10899438 -0.23444505 0.53518087 0.23943938 -1.0105284 0.5362614 0.032788496 -0.1511972
0.26088697 0.040701363 0.37758502 -0.27251694 0.03434642 0.07662531 0.07195324 -0.175553
00000000: 0f49 b5be 8371 17be be3b 873e 7e42 cc3d
00000010: e87e 9ebe b48d 393e 9bcd 8e3d 9a71 96be
00000020: 052d 993e 3f56 90be 966c 2f3e ab76 9c3d
00000030: 2858 443e a682 123f e987 513e df89 8dbd
00000040: 4699 da3d cbd1 b1bd df91 9a3b 03a7 f7bd
00000050: 9fe2 c63d 5534 c63e 7530 4d3e 3821 6a3e
00000060: 8fa6 a1be 048e 2fbd d221 1b3d 5484 473f
00000070: fce8 813c 4818 22be b538 763d 8b3f 763d
00000080: 885d 22be dbc6 a83d e821 9bbe a37b 16bf
00000090: 2cea d43d b177 033e 69eb 9e3e 3881 823e
000000a0: abc9 30be fccd 2f3e 963a 65be 3382 ba3c
000000b0: 2c73 163e 4ce3 5cbe 3eea c8be 2813 a13d
000000c0: f190 cd3d a692 d53d 1098 933e 9e25 1b3e
000000d0: 992e f6be 5a54 4d3f f4f1 adbd bfda 1dbe
000000e0: 01bc bfbd 1981 c2bd eb3e 2f3f 5236 2dbe
000000f0: 0677 8ebe 3dda e1bd a801 52bd d33f 30be
00000100: 070b 19be 5c53 513d a56a e63d f2f9 1b3e
00000110: 0852 5fbd 9c5c 16be 0d64 c3be e896 1dbd
00000120: 1269 26be d4f6 0ebe 9973 ab3d 878b 0bbe
00000130: 9f2b 98be 70b4 88be 9f35 ca3d b94f e53d
00000140: dd05 b93c 2371 9cbd 71ec d6bc a88e 003e
00000150: db4b 803d 9a00 98bd c33f ba3c 3e2e 2a3e
00000160: 9dae a7bd 785a cbbd df22 623c f99d e0bd
00000170: 1852 a33c c3ad 03be 70fa 8f3c e30a 763e
00000180: d6aa 6d3d 1a5e 1c3c 836c 883e 5ba0 3b3e
00000190: 7795 fc3d 5585 48bc 151b cebe 84fc 3ebe
000001a0: f04c a53b f89d d4bd e518 eb3d a808 3a3e
000001b0: 0386 80be 009a 9abe e2e3 063e b0af 853d
000001c0: f59b ae3e ff99 623e 8788 dfbd f3fe 943e
000001d0: ec22 c53e 8819 8abe c0ce 803d 9eb8 563e
000001e0: 5fa4 7a3e 048c 933e 72aa 6bbe 89aa 6fbe
000001f0: 8f28 103d c148 ddbb 41a3 46be df6e 2d3e
00000200: 0655 f73d a101 56be 92ff 293d b8a8 2c3e
00000210: f46b 0f3e a9fa 26bd 27da 2dbe b57b e3bd
00000220: 2f1a ba3d a2cf f1bd 1242 fe3c a2c0 5a3e
00000230: 4945 24be 197c b6be 7df8 0b3e 3f37 853c
00000240: fafb b03e acc7 663e 1162 4abd 5538 ce3e
00000250: d818 4c3e 77a6 f0be 5f27 15bd 718a 083e
00000260: 3854 8e3e 393c 613d 2df2 3cbe 577f 06bf
00000270: 340d 733e 1164 febd dd92 54bd f92a db3e
00000280: de18 14be 7f48 55be 455a 9b3d 2fb7 d93e
00000290: 995b 033e 69d9 583d 210c 1cbe d928 86be
000002a0: 27df 2b3c 2ba4 95bd 33a3 833e 8734 633e
000002b0: d606 c5be 397f d7be 1f58 c43e ee96 5a3d
000002c0: ad9f 923e 4d1d cb3d f223 033c 4ab6 3c3e
000002d0: dd44 d13e 8ec1 04bf acfd 9ebc ff91 9a3e
000002e0: 18cf a03e c682 7d3e 439d b1be 27b4 0ebf
000002f0: 8959 9a3e b011 343e 1f67 193e d07b cd3e
00000300: 5712 043d fb6d 833d dd88 ca3c 89e9 2e3e
00000310: b3fb 043e 06c8 5bbe 6d16 51be 9634 d9bd
00000320: eb0f abbd 6271 21be 3a3a 113e bc30 063d
00000330: ab25 d8be 5b82 f8be 4b5c af3e 1114 673d
00000340: cd3b 023e 5e60 9fbc 82e3 b5be 4f21 eb3d
00000350: 9980 733e c9c9 01bf 6a5c e43c 55eb a13e
00000360: 1d62 bf3e 0a47 433e c865 f4be 7f69 d9be
00000370: c01f 4b3e f669 a3bd b665 a03d a968 b83e
00000380: 945e db3d ef1b 783d de51 abbd 227b e3be
00000390: a9e2 e8bc 0bff d23d 5ccf da3d a4f5 063f
000003a0: 8220 7fbe 7520 863e dc56 c3be 8d9a eb3c
000003b0: 4d64 133c 69e8 a6be f20c 54be 93b6 15bd
000003c0: 7238 dfbd 5d12 70be 9d01 093f 992f 753e
000003d0: ff58 81bf 6d48 093f 3b4d 063d 70d3 1abe
000003e0: fa92 853e 79b6 263d d352 c13e 5787 8bbe
000003f0: d5ae 0c3d bbed 9c3d 385c 933d 2ac4 33be

fc2.bias f4 [32]
-0.033703167 -0.16974302 0.06501248 0.2609186 0.41470093 0.18906848 0.09484083 -0.106294714
-0.022583736 0.1732828 0.3509924 -0.1624828 -0.04944055 0.07923441 -0.067148596 0.21536385
-0.23511443 0.35934138 -0.05280267 -0.44856447 -0.07668196 -0.30573335 0.27065057 0.12522876
0.11362111 0.21183228 0.36237568 -0.035092734 0.39240795 -0.1307455 0.31122977 -0.0332609
00000000: 550c 0abd 1dd1 2dbe 4325 853d 1f97 853e
00000010: ae53 d43e 2b9b 413e e93b c23d 0bb1 d9bd
00000020: 8701 b9bc 0c71 313e 47b5 b33e e461 26be
00000030: 2d82 4abd a645 a23d 3485 89bd 5788 5c3e
00000040: d6c1 70be 98fb b73e 9d47 58bd 3eaa e5be
00000050: 6e0b 9dbd 1589 9cbe b692 8a3e f83b 003e
00000060: 2fb2 e83d 90ea 583e 4e89 b93e 66bd 0fbd
00000070: b2e9 c83e 26e2 05be 8259 9f3e 953c 08bd

fc3.weight f4 [2, 32]
-0.37788546 -0.27837557 0.3435282 0.29275596 0.31235927 0.2340087 0.32063532 -0.49031645
-0.35656554 0.21037507 0.31006467 -0.41040024 -0.31337562 -0.008357004 -0.24031469 0.36614364
-0.40131256 0.22991624 -0.21894848 -0.19449241 -0.36598262 -0.2544888 0.34915036 0.1820398
0.35764566 0.32071793 0.3011013 0.16086817 0.1341901 -0.40667292 0.31950566 -0.20974681
-0.49874616 -0.5222519 0.06658226 0.36214444 0.28164658 0.35965145 0.2918025 -0.14076649
-0.2849475 0.3641572 0.33782944 -0.15333965 -0.38217625 -0.40954497 -0.44941851 0.13775498
-0.40653154 0.3177148 -0.48140046 -0.38252363 -0.16840097 -0.3296612 0.36864936 0.20308039
0.1902867 0.102220275 0.16662636 -0.23764874 0.22034363 -0.22795169 0.09271971 -0.2840532
00000000: 347a c1be 3e87 8ebe eee2 af3e 1ce4 953e
00000010: 8eed 9f3e fa9f 6f3e 502a a43e c20a fbbe
00000020: c28f b6be 906c 573e ccc0 9e3e fb1f d2be
00000030: c572 a0be d1eb 08bc 0e15 76be 2e77 bb3e
00000040: d778 cdbe 2a6f 6b3e 0834 60be 0529 47be
00000050: 1362 bbbe 5b4c 82be d6c3 b23e a468 3a3e
00000060: 551d b73e 2435 a43e f329 9a3e a0ba 243e
00000070: 2169 093e 6f37 d0be 3f96 a33e dec7 56be
00000080: a85b ffbe 4db2 05bf 485c 883d ff6a b93e
00000090: fb33 903e 3c24 b83e 2367 953e 1725 10be
000000a0: a4e4 91be d072 ba3e fbf7 ac3e 1205 1dbe
000000b0: 9bac c3be e1af d1be 2f1a e6be a40f 0d3e
000000c0: e724 d0be 84ab a23e 1f7a f6be 23da c3be
000000d0: 4e71 2cbe 5ac9 a8be 9cbf bc3e 4ef4 4f3e
000000e0: 84da 423e dd58 d13d 1aa0 2a3e 315a 73be
000000f0: c3a1 613e 2b6c 69be d5e3 bd3d 6c6f 91be

fc3.bias f4 [2]
0.2646401 0.30371386
00000000: e87e 873e 6280 9b3e
