Reinforcement Learning/cart-pole/DeepQLearning/policy_net.pth (torch, 7343 bytes, 6 tensors)

fc1.weight f4 [32, 4]
000000 a9 d1 73 be f5 8d 95 3e ca 3b f0 be 72 4f 41 3e
       -0.23810448 0.29209867 -0.46920615 0.18877962
000010 59 b6 99 3d d1 b7 2d 3e c4 37 63 3f b6 9f be 3e
       0.07505483 0.16964652 0.88756967 0.37231225
000020 a4 5b 80 be 26 86 89 3e 31 d7 81 be 78 1b 0a 3f
       -0.25069916 0.2686016 -0.2535949 0.53948164
000030 26 9f 06 bf f5 68 73 3d d2 c7 99 be d0 4d 72 be
       -0.5258659 0.059426267 -0.30035263 -0.23662496
000040 dd da 06 bf b9 cf 85 bd f4 21 1f 3c c7 0c 51 3e
       -0.5267771 -0.065337606 0.009712685 0.2041503
000050 72 c9 3c 3f ba 65 98 3e 74 8a 26 bf 35 17 1b bd
       0.7374488 0.2976511 -0.6505501 -0.03786393
000060 15 9b 25 3e f2 17 60 bc f2 15 26 bf 76 66 78 bd
       0.1617244 -0.013677584 -0.64877236 -0.06064459
000070 f3 9d a4 3e d2 ad 8c bd 39 68 18 3f 63 f6 87 be
       0.32151756 -0.06869091 0.5953403 -0.26555166
000080 4c 99 5e bf c0 c5 93 be f0 d7 99 3d c8 e8 2b 3e
       -0.8695266 -0.2886181 0.0751189 0.16788018
000090 1c 2d ba be b2 bb 69 bf f9 07 f7 be 3c a6 18 be
       -0.3636254 -0.91302025 -0.4824827 -0.14907163
0000a0 21 3d 2d bc 4a b8 c0 3d b4 94 a6 be ea 1f 80 be
       -0.010573656 0.0941015 -0.32535326 -0.25024348
0000b0 70 b8 83 3f 66 88 19 3e 05 62 f0 be c9 1a b4 3d
       1.0290661 0.14993438 -0.46949783 0.08794171
0000c0 a7 81 f7 bc 58 ad 98 3e b4 21 37 bf 05 2b 4e bd
       -0.03021319 0.2981975 -0.715358 -0.050333995
0000d0 24 44 53 bf 0d 38 1a bf 12 91 cf 3e 76 ea a3 bc
       -0.8252585 -0.60241777 0.40540367 -0.02000926
0000e0 ba 5f 3b bf e4 58 2a be 10 ae 88 3f e0 a4 65 3e
       -0.7319294 -0.16635472 1.067812 0.22426176
0000f0 fd 77 81 be 44 6a 96 3d 2e 47 ed be 6c aa 3b 3f
       -0.25286856 0.07344487 -0.46343368 0.7330692
000100 cc 1a 02 bf c1 e6 27 be 1e dd 28 bf 0a 10 eb bc
       -0.5082214 -0.1639662 -0.659624 -0.028694171
000110 4e 4b b0 be 6c 56 fa be 01 90 32 bf dc 45 c4 bd
       -0.34432453 -0.4889406 -0.6975098 -0.09583637
000120 2f 01 59 be 7d c8 f4 be f7 3b 82 3c 98 3c 51 3e
       -0.21191858 -0.4780921 0.015897734 0.20433271
000130 1d 9c 48 3e bc 4d 6c 3d af c4 e2 be f4 46 9b bd
       0.19590802 0.05769132 -0.44290683 -0.075818926
000140 97 b7 c6 3d 3b cf af be 69 46 1a bf 74 99 6d be
       0.09702986 -0.34337792 -0.6026369 -0.23203069
000150 52 9a bc 3e 83 ad cf be 61 b9 87 3d 13 28 72 3e
       0.36836487 -0.40562066 0.06627155 0.236481
000160 6e d0 6f 3f bd 69 87 3e 8d 09 c7 bd 71 83 85 be
       0.93677413 0.2644786 -0.097186185 -0.26076844
000170 65 c0 11 bf 21 da bf 3d 21 63 a2 bd 03 48 3a bb
       -0.56934196 0.09367777 -0.079290636 -0.002842427
000180 db 7a fc bd 2b e2 0f 3f 33 e4 98 3e 9c 5b fb 3d
       -0.1232812 0.5620448 0.29861602 0.122733325
000190 e5 c1 e0 3e b6 99 cd bd 98 ab 93 bd 7c 1d 04 bf
       0.4389793 -0.10039084 -0.07210463 -0.5160749
0001a0 17 f1 6b 3e a9 06 1c 3f 51 e1 93 3e 10 91 1a 3e
       0.23041187 0.6094766 0.2888284 0.150944
0001b0 ce 41 12 3f 79 ac 02 3f c6 e0 a3 be 4b cb 5a 3d
       0.5713166 0.5104442 -0.32007426 0.05341653
0001c0 b5 11 69 3f a4 de 3f 3f 87 a1 91 3c fc 42 a0 3e
       0.91042644 0.749491 0.017777218 0.31301105
0001d0 91 c1 87 3e 31 76 60 be f9 8c cf 3e af ff a1 bb
       0.26514867 -0.21920086 0.4053724 -0.00494381
0001e0 64 03 96 be b4 22 17 3f 8a 05 5c 3e fd e4 0b 3e
       -0.29299462 0.5903733 0.21486488 0.13661571
0001f0 33 6d c6 be 0c 2e ef 3d 70 a1 aa 3e ae 5a 8a 3e
       -0.38755187 0.116787046 0.33326292 0.27022308

fc1.bias f4 [32]
000000 58 a5 9f bd ee 16 78 be ee 30 e4 3e 46 b1 d6 3e
       -0.07795209 -0.24227497 0.4456858 0.41932124
000010 66 a8 32 3f 1b 73 6a be 97 61 ff be 65 0a 07 bd
       0.69788206 -0.22895472 -0.49879143 -0.032968897
000020 47 cd e5 be ff 11 1d bf 9b 4a 43 3f 90 54 88 be
       -0.44883177 -0.61355585 0.76285714 -0.26627016
000030 b7 92 33 bf fe b6 03 bf f7 a3 d0 3e 28 30 5c bb
       -0.70145744 -0.514511 0.40750095 -0.003359804
000040 f7 0a 8f 3c 62 b1 1b bf b1 c6 f3 3e c3 f8 a6 3e
       0.017461283 -0.6081754 0.47612527 0.32611665
000050 78 5d a7 bd f6 20 fa bd 22 43 20 3d aa 43 1e 3f
       -0.081721246 -0.12213318 0.039126523 0.61822
000060 cd a5 20 bf 12 34 91 3e 93 a7 b7 be 35 c2 8c be
       -0.6275299 0.2836004 -0.35870036 -0.27491918
000070 a4 79 29 be e8 08 28 3f 68 7d 04 bf db ee 41 bd
       -0.16550308 0.6563859 -0.51753855 -0.04734693

fc2.weight f4 [32, 32]
000000 f2 10 a4 bc 7a 78 2e 3c d3 c9 40 3c 29 d1 c3 3d
       -0.020027611 0.010648841 0.011766869 0.095613785
000010 00 d1 4f bd 0b 8b 4c 3e 53 72 41 3e fe 48 ed bd
       -0.050736427 0.19974916 0.18891267 -0.11586188
000020 aa d4 82 bd 0d ce 2e 3e c6 bd 89 be c9 f1 4d 3d
       -0.06388219 0.1707079 -0.26902598 0.050279412
000030 bd 61 90 3e bd 97 d8 3e 3c 5c c7 bd 05 61 1f be
       0.28199568 0.42303267 -0.09734389 -0.15564354
000040 54 bc 08 bf 82 d6 e2 3d d2 25 bd bd d5 0e f9 be
       -0.53412366 0.1107607 -0.09235729 -0.48644128
000050 4d 9d ab 3c 72 21 5a 3e 75 be 60 3d 85 cf 5f be
       0.02094903 0.21301821 0.054869134 -0.21856506
000060 1b 32 8b 3e 4d d5 7d 3e b2 06 06 3e 3f e4 ab 3e
       0.27186665 0.24788399 0.13088492 0.33572575
000070 69 92 b9 3c 74 28 41 bc 06 13 17 3e cb 38 9a 3d
       0.022652822 -0.01178943 0.1475335 0.07530364
000080 ee 1f 53 bd 0b 86 72 3d 38 be 0d 3d 4e 8d c0 3d
       -0.051544122 0.059209865 0.034605235 0.09401952
000090 91 c5 aa 3e c4 dd 20 be 7e 36 ee be 8d 8e 18 be
       0.33353856 -0.15709597 -0.4652595 -0.14898129
0000a0 f5 10 4c be c9 d9 a8 be df 16 b0 3d 6d 6b 16 3c
       -0.19928344 -0.32978657 0.08598112 0.009180886
0000b0 32 d4 e2 be ff 35 2a bf 1d 97 82 bc 23 be 87 3d
       -0.44302517 -0.6648864 -0.015941197 0.066280626
0000c0 99 4c 26 3f 22 f3 0f bf 60 d3 a9 3d cc 7e df 3e
       0.6496063 -0.56230366 0.0829227 0.43651426
0000d0 73 a8 ac bd 1a 82 50 be fd ef 86 3d 09 5d f8 3e
       -0.08430567 -0.2036213 0.06588743 0.4850848
0000e0 1c b7 87 be 4a 9b cd 3d 5c 11 30 be 7b 5b 8f be
       -0.2650689 0.10039385 -0.17194122 -0.27999482
0000f0 8b b2 b4 3d b2 0f 9a 3e a4 44 5c be 2b e0 83 3d
       0.08823117 0.300901 -0.2151056 0.06439241
000100 a0 b6 74 3d d0 2c 58 3c 5c cb a0 bc df 03 4b be
       0.059744477 0.013194278 -0.01962822 -0.19825695
000110 5a 02 bd be 25 da 36 3e e6 03 0f 3f c8 6a 86 3d
       -0.36915857 0.17856653 0.55865324 0.06563336
000120 14 e5 82 3d 81 db 8d 3e ec 4d bf 39 12 40 03 3e
       0.063913494 0.2770653 0.00036488415 0.1281741
000130 9f 11 1f 3f 24 b8 88 3e 09 43 b7 bd c2 a5 59 3d
       0.6213626 0.26702988 -0.08948333 0.053136595
000140 b0 9a 27 be 56 88 eb 3e ed 57 74 be 5a 3e 26 bd
       -0.16367602 0.46002454 -0.23861666 -0.040586807
000150 a3 3e 29 3e 7c d4 2b 3e dc f8 38 3d 08 3d 30 be
       0.165278 0.16780275 0.045159206 -0.17210782
000160 d2 91 a8 3e 92 33 fc 3d c9 a7 00 3e 16 b9 23 3e
       0.32923752 0.12314524 0.12564005 0.15988573
000170 d7 e0 31 3e 2d 54 de be 4a c9 96 3e 71 bc 9b 3d
       0.17370926 -0.43423596 0.29450446 0.07604302
000180 6c 13 9c 3d 52 41 96 3e e8 bb 43 be ce 2c 86 bd
       0.07620892 0.2934671 -0.1911465 -0.065515146
000190 d4 51 90 be 69 6c 83 3e e5 34 a7 3e 4f 02 8f bb
       -0.2818743 0.25668648 0.32657543 -0.004364289
0001a0 13 df 0c 3e 3c d6 44 3e 98 9e 88 bd b8 3a d7 bb
       0.13756971 0.19222349 -0.06670874 -0.006568279
0001b0 f7 22 cc 3e f8 8e ce 3e 35 b9 a5 3d 21 12 d5 bd
       0.39870426 0.40343451 0.08091966 -0.104038484
0001c0 4a 5f 26 bf bb d5 93 3e ab e6 46 be 28 5e cb be
       -0.6498915 0.28874 -0.1942393 -0.39720273
0001d0 8d 7a 82 bc 49 70 8c 3e 3a d2 b7 3d 41 ef 83 bd
       -0.015927577 0.27429417 0.089756444 -0.064421184
0001e0 0b fb 01 3e 8e 74 db 3d 81 36 2c bd 6f 43 46 3e
       0.12693422 0.107155904 -0.042044166 0.19361661
0001f0 5f 0d 8a 3d ee 5f 94 be 0c e1 72 3e 66 0d 30 ba
       0.067408316 -0.2897944 0.23718661 -0.0006715864
000200 d8 49 3c be b5 d0 f7 3c f1 18 44 3e 8b d7 8b 3e
       -0.18387544 0.030250886 0.1915014 0.27312884
000210 d9 f9 94 3d d4 d8 92 be 33 33 cb be f5 4c 1e be
       0.07274217 -0.28681052 -0.396875 -0.15459044
000220 8a 5c 87 be 68 30 de bd 46 27 91 3e 2f 58 13 be
       -0.2643779 -0.108490765 0.28350276 -0.14389108
000230 41 b9 f8 be 16 de 1e bf 31 c3 d4 3d 48 b7 14 bc
       -0.48578838 -0.62057626 0.10388792 -0.009076901
000240 35 c9 6a 3f 6e b1 f1 be fb 7c 3b bc 30 53 a0 3e
       0.9171327 -0.4720568 -0.011443372 0.31313467
000250 78 d6 71 be 8e ad be 3d bc 15 b3 3d c4 9d 8e 3e
       -0.2361697 0.09310447 0.0874438 0.2785474
000260 93 57 9c bd 05 a4 31 3e b6 de 6b be 39 3b 64 be
       -0.07633891 0.17347725 -0.23034176 -0.22288217
000270 a4 af 79 bb 17 56 98 3e 36 52 3b be 69 de 9f bc
       -0.0038099075 0.2975318 -0.1829308 -0.019515233
000280 f0 c9 fb bd ce 77 4e 3d b8 59 46 3d 33 80 40 3e
       -0.12294376 0.050407223 0.048425406 0.18798904
000290 b8 cc 00 3e b2 74 37 be 7f 59 b8 be 7a dd 91 bd
       0.12578094 -0.1791561 -0.3600578 -0.071223214
0002a0 51 3d 0a 3d 71 70 aa be b4 14 61 3e 72 b8 52 bc
       0.033749882 -0.3328891 0.21980554 -0.012861358
0002b0 c8 fb d3 be a1 cf 0e bf 2b c8 21 be cc 8e 38 bd
       -0.4140303 -0.55785567 -0.15799014 -0.045058057
0002c0 35 b4 1a 3f 6f 91 ad be f2 5c aa 3e 4d 62 bd 3e
       0.60431224 -0.3390002 0.33274037 0.3698906
0002d0 5b 9b 42 be 20 0b 3e bc b4 05 c6 bc 4f b0 11 3e
       -0.19004576 -0.011599332 -0.024172641 0.14227413
0002e0 f3 ca a8 bd ec cc 10 3e cb 27 da bd ae dd a2 bd
       -0.082418345 0.14140671 -0.10652121 -0.07952438
0002f0 9f bf 69 be 13 9e 7d 3e 0f 10 83 bc 19 ea 23 be
       -0.22827004 0.24767332 -0.015998868 -0.1600727
000300 eb 68 09 bb 9b 34 58 be 4e 75 f9 bc f9 a7 a4 3e
       -0.0020967077 -0.21113817 -0.030451443 0.32159403
000310 f2 ed ab 3e 3e 70 83 be c6 05 bc bd 00 27 0a 3c
       0.33579975 -0.25671571 -0.09180789 0.00843215
000320 ce c5 3d be 13 5b be bd a1 8a 80 3d 72 fb 04 3e
       -0.18532488 -0.09294715 0.06276441 0.12986544
000330 3a be 9a be a3 db b2 be 03 8e 58 be e4 f0 6a ba
       -0.30223256 -0.34933195 -0.21147923 -0.0008962287
000340 ea 51 40 3f 1d 4a f7 be 21 ae 3c 3e 3c 2b 93 3e
       0.7512499 -0.4829873 0.184258 0.28743923
000350 a7 41 90 be ad 9d c1 3d 24 5b cb 3c a7 91 55 3e
       -0.2817509 0.094539024 0.024823733 0.20856343
000360 e2 ee 97 be 38 af df bd 51 fc 1a be 43 c1 48 bc
       -0.2967444 -0.10922092 -0.15135314 -0.012253108
000370 26 48 58 bd 03 da b5 3e b8 db 66 be f8 07 c2 3c
       -0.05280318 0.35517892 -0.22544754 0.02368544
000380 81 03 9f bd 2e 44 f3 3b c0 39 20 bc 71 aa 5a bd
       -0.0776434 0.007423899 -0.009779394 -0.0533852
000390 63 2c 11 3c 89 f3 22 3e c9 24 9a 3d 7d 05 96 3d
       0.00886068 0.15913214 0.075265475 0.073252656
0003a0 46 b9 c5 3e f7 ef 68 3e ea 97 7e 3c 81 cc b7 be
       0.38617915 0.2274779 0.015539149 -0.35898212
0003b0 54 d2 ab 3d 89 88 58 3f a9 e7 f6 3d 6f fd 3d 3d
       0.08389726 0.84583336 0.120559044 0.04638427
0003c0 37 a4 d8 be 68 65 b1 3e 79 a1 2e 3d 77 9b 65 be
       -0.42312786 0.3464768 0.04263446 -0.22422586
0003d0 1c 29 60 3e 99 fd fc bd 71 a2 50 bd e8 10 89 be
       0.21890682 -0.123530574 -0.050936166 -0.2677071
0003e0 f6 be 4a 3e 49 0a dd bc bf 1c ec bd 24 5a 83 be
       0.19799408 -0.026982443 -0.115289204 -0.2565471
0003f0 c8 29 f7 bd 5e c1 6e bd d3 b1 8d 3e 1f bd f6 3d
       -0.12068516 -0.058289878 0.27674732 0.12047791

fc2.bias f4 [32]
000000 77 d6 39 be c8 81 7a 3e 15 85 36 be 87 2f 78 bd
       -0.18148218 0.2446357 -0.17824204 -0.0605922
000010 30 41 9b 3e e9 14 4c 3e 35 d9 7a 3e cc 5d 61 bc
       0.30323172 0.19929852 0.2449692 -0.013755273
000020 43 21 00 be 82 3f 51 be 99 18 a5 3d 50 15 cc bd
       -0.12512688 -0.20434383 0.08061332 -0.099650025
000030 d1 3a 35 3e cb 87 c1 3e 5d 69 cb 3e e3 d2 6a 3e
       0.17698218 0.37798914 0.39728823 0.2293201
000040 33 0a 8e be e6 02 b0 bc 28 64 87 be d5 6b 6e be
       -0.27742156 -0.021485757 -0.264436 -0.23283322
000050 f7 41 00 3e 9f 85 3a be af 2b 3f bd da 5a c7 3e
       0.12525164 -0.18215035 -0.04667252 0.38936502
000060 8c 31 74 3e e2 45 86 3e 7b 13 95 3e ad 43 54 3e
       0.23847026 0.2622519 0.29116425 0.20728941
000070 5a 88 99 be 11 b4 92 3e c7 82 a5 be 7b bd 26 be
       -0.2998684 0.28653005 -0.32326338 -0.16283219

fc3.weight f4 [2, 32]
000000 d2 a9 1b be 1b d4 a9 3e dd 7d da be 6f 1c 80 be
       -0.152015 0.33169636 -0.4267415 -0.25021693
000010 60 1a d3 3e 6e 1a a2 3e bb a2 eb 3e 7f a9 54 be
       0.4123106 0.3166079 0.4602259 -0.20767783
000020 f5 24 0b bf b9 54 85 be 74 d8 ff be 16 a0 fc 3d
       -0.54353267 -0.260412 -0.49969828 0.123352215
000030 29 cf 5f 3e 1a 69 8f 3e 0a 48 a4 3e 0c 15 d3 3e
       0.21856369 0.28009874 0.3208621 0.41226995
000040 9f 46 c4 be c1 ef 70 be 13 f7 bc be 02 d8 f4 bd
       -0.3833513 -0.23528959 -0.36907253 -0.11955263
000050 ed d7 a4 3e 15 94 86 be 70 11 69 bd 43 f5 af 3e
       0.32195988 -0.26284853 -0.056901395 0.34366807
000060 b3 06 a1 3e 09 44 c1 3e 37 cf 8e 3e 86 d2 8b 3e
       0.31450424 0.3774722 0.27892467 0.27309054
000070 79 23 bb be f4 64 aa 3e 0a 91 a3 be da e9 a9 be
       -0.365505 0.33280146 -0.31946594 -0.33186227
000080 81 53 bb be 49 b7 bc 3e 27 7a b6 be 01 9a a8 be
       -0.36587146 0.36858585 -0.3564007 -0.32929996
000090 9e 35 96 3e 87 62 98 3e 42 55 39 3e f9 86 bf be
       0.29337782 0.2976267 0.1809893 -0.37407663
0000a0 9e 7e b6 be ee 76 ad be 3f f7 de be e0 1e 9b be
       -0.35643476 -0.338798 -0.4354801 -0.30296993
0000b0 7c c3 b1 3e b6 99 8e 3e da a6 99 3e 1c 7c a8 3e
       0.34719455 0.27851647 0.3001011 0.32907188
0000c0 fe 60 05 bf b8 a3 c1 be c7 4c fb be 1a e4 c1 be
       -0.52101123 -0.3782022 -0.49082014 -0.3786934
0000d0 3a 41 7b 3e d5 e1 96 be bd d6 af be b1 d2 c8 3e
       0.245366 -0.2946917 -0.3434352 0.39223245
0000e0 5d b6 38 3e 80 be 5e 3e 51 87 d1 3e 69 ac 97 3e
       0.18038316 0.21752357 0.4092355 0.29623726
0000f0 68 8a b0 be f0 89 9f 3e 85 02 85 be 6d 25 d4 be
       -0.34480596 0.31159925 -0.25978485 -0.41434804

fc3.bias f4 [2]
000000 23 7b 75 3e d6 bb a6 3e
       0.23972754 0.32565182
